Chat-with-PDF-Chatbot/models/Dynamic_memory.pth (torch, 993223 bytes, 26 tensors)

embed.weight f4 [44, 80]
000000 ed 76 19 be 67 f4 39 3c c6 52 88 bd a5 05 76 3d
       -0.14986773 0.011349774 -0.06656413 0.060063977
000010 c5 6a 49 3e 44 2e 75 bd 05 2e 54 3d 3b 84 55 be
       0.19669636 -0.059858575 0.0518017 -0.20851223
000020 cd 1f 27 3d 2a 8b 34 3e e0 af 76 bd b9 79 47 3e
       0.040801812 0.17631212 -0.06022632 0.19480027
000030 1f 4e 0d 3d 66 a2 84 3c 99 45 38 3e a0 fa 82 3c
       0.03449833 0.016190719 0.179953 0.015988648
000040 56 0a e5 3d 40 02 f0 bd 34 87 0e be 20 c9 21 3e
       0.11183612 -0.11719179 -0.13918763 0.1579938
000050 6b 57 6d bb f9 8e 8d bd 90 61 28 3c 31 0b f4 bd
       -0.0036215435 -0.069120355 0.010277167 -0.11916197
000060 eb e5 4f be 75 d3 51 be c3 86 da 3d 58 32 c1 3d
       -0.2030255 -0.2049082 0.10670235 0.094334304
000070 9b be 5b 3e 81 24 4c be 03 c6 88 3d 5e 45 05 3e
       0.21459429 -0.199358 0.06678393 0.13014743
000080 48 24 0c be d0 b8 02 be 27 6f fd bd c5 d9 b8 3d
       -0.13685715 -0.12765813 -0.12374716 0.09025911
000090 4f 67 ec 3d 63 ab 17 3e ba 05 ba 3d 8b 72 12 3e
       0.11543142 0.14811473 0.090831235 0.14301507
0000a0 2a 50 fd bd 41 fb ba bd 37 dd 5f be 3d 59 92 3d
       -0.12368806 -0.09129954 -0.2186173 0.07145927
0000b0 0d 78 a4 bd 51 35 f1 bd 17 f2 10 be 03 dd 41 3c
       -0.0803071 -0.117777474 -0.1415485 0.011832478
0000c0 78 23 29 be 07 b0 1b be 68 9f e4 3d e3 e9 e3 bd
       -0.16517437 -0.15203868 0.11163217 -0.11128595
0000d0 73 74 51 3e a3 16 22 3d 2b 64 ca 3c 79 c2 fe bd
       0.20454578 0.03957237 0.024705967 -0.124394365
0000e0 4c c7 33 3e 61 cb 5a 3e 76 37 fa 3d 7c e5 28 be
       0.17556494 0.21366645 0.122176096 -0.16493791
0000f0 0d 8d 1a 3d 5a 3f 2a 3e 7d ef 4e be 00 a6 90 bd
       0.037732173 0.16625729 -0.20208545 -0.07062912
000100 1e ea 0c 3d 11 82 c9 3d 09 56 4a 3e ed 95 d1 bd
       0.03440296 0.09839261 0.19759382 -0.10233674
000110 8c 72 3b be ca 27 12 3e 1f e0 3b 3e 0f 91 5a 3b
       -0.18305415 0.14272991 0.18347214 0.0033350622
000120 2d d1 c7 3d 25 4b 5c bd e9 5f fb bd 24 6c 11 be
       0.09756694 -0.0537826 -0.12274153 -0.14201409
000130 26 49 03 3e e3 ce 93 bd 60 fb b9 3d f4 cf 44 3d
       0.12820873 -0.07217195 0.09081149 0.048049882
000140 97 e5 4b 3e a4 7b a4 3d d7 98 4f be 61 ce 9c bd
       0.199118 0.08031395 -0.20273148 -0.07656551
000150 5c a8 0f be c6 11 59 be 0d 12 e8 3d f3 29 66 bd
       -0.14029068 -0.21198186 0.11331568 -0.05619235
000160 a9 0d bd 3d ea f2 1f 3e ef 07 cb 3d a9 04 13 be
       0.09231121 0.15620008 0.099136226 -0.14357246
000170 53 cd 12 3e 2c 5e 4a 3b 05 e9 33 3b 45 d2 3b 3e
       0.14336137 0.0030878885 0.0027452123 0.1834193
000180 24 77 7d 3d 1c ee 81 bd 1b c3 fe bc 7c 26 41 3e
       0.0618812 -0.06344244 -0.031098893 0.18862337
000190 8f 36 ba bd 24 fb cb 3d b5 96 58 be 47 0d f3 bd
       -0.090924375 0.09960011 -0.2115124 -0.11867767
0001a0 89 5b aa 3d 62 31 9b bd 23 fe 9e 3d fd 37 4d be
       0.0831824 -0.075777784 0.077633165 -0.20040889
0001b0 5d 00 ef bd f5 eb 97 3d 06 e9 9c bd 5d 28 5c 3d
       -0.11669991 0.07418052 -0.07661633 0.05374943
0001c0 49 db 36 3e dd 5f 20 be 08 d4 13 3e 4a e2 31 be
       0.17857088 -0.15661569 0.14436352 -0.17371479
0001d0 20 0c e2 39 44 40 bd bd 8f 17 45 3e 4b b2 5e 3d
       0.00043115113 -0.09240773 0.19247268 0.054369252
0001e0 39 8a d0 bd 7d 25 20 be 14 40 47 be 61 2c d9 bd
       -0.10182614 -0.156393 -0.19458038 -0.10604168
0001f0 00 ea 16 bc 77 e2 f5 3d 77 20 03 be c7 24 98 bc
       -0.009211063 0.12006085 -0.12805353 -0.018572224
000200 f6 5d 0c be 72 52 a0 bd 23 fe a7 bd d7 f0 86 3d
       -0.13707718 -0.07828225 -0.082027696 0.06588905
000210 ad 52 2b 3e 75 4a cd 3d 78 71 28 be 07 3f 9c 3b
       0.16730757 0.10023967 -0.16449535 0.0047682556
000220 d5 5e 05 bd f6 d5 80 bb 5e 8a 59 3e 90 d7 ba 3d
       -0.032561142 -0.003931756 0.21244189 0.091231465
000230 dc 8d 43 bd 5d 88 ed bd d3 52 43 3d 8b c9 14 bd
       -0.04774271 -0.11598275 0.04768641 -0.03632502
000240 84 95 19 be 96 41 52 3e 89 ce 2f 3e b8 4c 5d 3e
       -0.14998442 0.20532832 0.1716863 0.21611297
000250 c3 90 5e 3e 5b 7d 77 bd 9d 96 e6 3d 7e 7e 3f be
       0.2173491 -0.060422283 0.11259196 -0.18700597
000260 d9 77 63 bd 08 33 a9 3c 0a b5 54 3e 74 f4 48 be
       -0.055534218 0.020654216 0.20772186 -0.19624501
000270 bd c8 92 3d be 1b 53 3d 7f 52 ab 3d 89 51 2a 3e
       0.07167194 0.05154013 0.08365344 0.16632666
000280 ee 68 2f bd 83 7c 21 be d2 bc 18 3e 5e 5d 31 be
       -0.042824678 -0.15770154 0.14915779 -0.17320773
000290 55 eb 80 bd 23 dd 72 3e b9 86 83 3d 63 7e 25 3e
       -0.06294886 0.2371717 0.06422181 0.16161494
0002a0 18 96 65 3e 2a 29 03 3e b5 b6 61 be 9b 34 d9 3d
       0.22420537 0.12808672 -0.22042353 0.10605737
0002b0 68 16 04 3e de 91 f3 3d 00 68 db 3d 48 34 c3 bc
       0.12899172 0.11893056 0.10713196 -0.02382864
0002c0 82 86 cf 3d 6d 5f 28 3e 00 fe 8a bd 29 a8 c4 bd
       0.10133077 0.16442652 -0.06786728 -0.096023865
0002d0 bb 16 70 be b1 91 05 3e 6a 18 11 be 97 53 e0 3d
       -0.23446171 0.13043858 -0.1416947 0.109534435
0002e0 6a 5e 60 3d 2c fe 10 3e 24 92 1d 3e 04 95 e8 bd
       0.05477754 0.14159459 0.1538778 -0.113565475
0002f0 5c 50 1b 3e 1f a9 c1 3d 0e 90 69 be 20 02 1c be
       0.15167373 0.094560854 -0.22808859 -0.15235186
000300 8d 55 ed bd 5e 5b c9 bd 99 e0 8a 3d 6d 44 3d 3e
       -0.11588583 -0.0983188 0.0678112 0.18483134
000310 ea 0a 2d bd 46 eb 44 3e 60 3c 28 be b6 a5 67 3d
       -0.042246737 0.19230375 -0.16429281 0.05655452
000320 89 98 ea 3d 33 9d ee bc f0 87 64 3d c5 4c 84 3e
       0.11454875 -0.029127693 0.055793703 0.2583982
000330 7a 9d 18 bc 72 04 1d 3e 82 b9 6e be e5 fa 81 3e
       -0.009314889 0.15333727 -0.23312953 0.2538673
000340 11 eb f1 bd 35 eb c5 bd b3 bf 17 3e 05 01 35 3e
       -0.118124135 -0.09664003 0.14819221 0.1767617
000350 0c a3 67 3e 02 e4 88 3d d3 9e 33 be af a5 30 be
       0.22620791 0.06684114 -0.17541055 -0.17250703
000360 a1 06 3c be 51 45 cd bd ce c8 23 3e d0 51 68 3e
       -0.18361904 -0.10022987 0.1599457 0.22687459
000370 3c f8 1a 3d 67 99 21 3e bb 38 69 be a7 cc fa bd
       0.03783439 0.15781175 -0.22775547 -0.122460656
000380 6d 01 1a bd a0 cc 4e be 29 51 fe 3d 88 82 af bc
       -0.037599016 -0.20195246 0.12417824 -0.021424547
000390 0d a8 6f 3e 48 1e 47 be 10 e7 52 be ba 83 ed bd
       0.2340395 -0.19445145 -0.20595956 -0.115973905
0003a0 01 e1 1c 3e 06 40 71 3d 09 15 31 be 9b 24 2d 3e
       0.15320207 0.058898948 -0.1729318 0.16908495
0003b0 25 a6 68 bd a8 95 45 3e 3b ef 52 bd 58 31 94 bd
       -0.056799073 0.1929537 -0.05149768 -0.07235974
0003c0 ed 21 9e 3e 50 a5 3d 3d 31 d7 1b bd bb 12 a3 be
       0.30885258 0.046300232 -0.03804702 -0.31850228
0003d0 a9 f4 11 3e a2 66 69 be 22 e6 c8 be b7 9b 95 3e
       0.14253487 -0.22793058 -0.39238077 0.29220363
0003e0 5c dd 8a be 65 2e 53 be cc fd ae bd 93 d7 f2 bc
       -0.2712201 -0.20623167 -0.08544502 -0.02964381
0003f0 07 d2 12 be 72 be 09 3e d1 57 bb bd d7 5e a2 3d
       -0.14337932 0.13451555 -0.09147609 0.079282455

input_gru.weight_ih_l0 f4 [240, 80]
000000 39 bc 98 3b aa e9 a5 3d 02 bb 6f 3b f1 d9 9b bd
       0.0046611098 0.081012085 0.0036579971 -0.076099284
000010 57 ec 60 3e 6d dd 98 be 65 6e b6 3d 23 9c e6 bc
       0.21965156 -0.29856434 0.08907775 -0.028150624
000020 1c 7b 84 3d d4 ef 3f be 6f 89 04 be 08 41 ad bd
       0.06468794 -0.18743831 -0.12943052 -0.08459669
000030 64 f7 34 3c 56 dc a8 3e 47 1b 98 3d d6 5e 17 3e
       0.011045311 0.32980603 0.07427078 0.14782271
000040 59 8f 20 3e f8 32 95 3d 6f d8 d0 3c 9a 87 05 be
       0.15679683 0.07285112 0.025493829 -0.13040009
000050 e9 8d 69 bd 82 2f 48 be 29 6e 0b 3e c5 b4 b5 be
       -0.0570201 -0.19549373 0.13616242 -0.3548948
000060 b5 87 00 3d 16 8c 2e 3e a4 47 eb bd b4 e6 b2 3d
       0.03137942 0.17045626 -0.11488274 0.087354094
000070 d9 3c f3 ba 92 fb 18 be 3d 2c be bd 36 e6 d3 bd
       -0.0018557563 -0.14939716 -0.092857815 -0.103466436
000080 d8 8a 7a be ad 86 0c be 5a 2c f7 bd 49 17 b2 bd
       -0.24467027 -0.1372325 -0.12069006 -0.086958475
000090 9a db 01 3e 7b 53 30 be c9 52 27 be e6 c5 f8 bd
       0.12681428 -0.17219345 -0.16340174 -0.12147121
0000a0 df 3a ad 3d 5c 95 88 3d 3a e0 8f 3c ad dd a6 bb
       0.084584944 0.06669113 0.017562974 -0.005092344
0000b0 26 77 35 be 1f 90 d7 bd 89 a5 ad 3d 54 1d fc bb
       -0.17721233 -0.10525536 0.08478839 -0.007693926
0000c0 f6 f1 0c be f7 1a 93 bd d7 bb dd bd 6a 4f bb bb
       -0.13764176 -0.071828775 -0.10826843 -0.005716254
0000d0 bb 74 9d 3d 1e f6 2c be 02 0e 4c 3e 9e 03 4e bd
       0.0768828 -0.16890761 0.19927219 -0.05029642
0000e0 c8 36 0e be 89 32 6b be 54 c6 c0 3d e4 53 0e 3d
       -0.13888085 -0.22968496 0.09412828 0.034747973
0000f0 9a a7 09 bd 88 86 9f 3d 80 6a ed bc 2b 7a 0c 3d
       -0.033607103 0.07789332 -0.028981447 0.034296196
000100 44 8e 84 3e 8d 67 5a bd 74 60 ed bd fd fe 4a be
       0.2588979 -0.05332141 -0.115906626 -0.19823833
000110 3b 03 5d ba 27 8c 66 3d d1 86 8a be 90 ef 36 be
       -0.00084309623 0.056286003 -0.27055982 -0.17864823
000120 5b 51 52 3e 51 75 c8 bc 8f c9 21 3d 64 ed cf 3d
       0.20538847 -0.024470003 0.039498862 0.101527005
000130 fb 3e ba 3c 05 74 32 3d 86 fc 78 3d 9d 8e 1f 3e
       0.02273511 0.043567676 0.0607877 0.15581746
000140 b7 fe ac bd 63 04 25 3e 96 2b 9a 3e 6e a5 97 bc
       -0.084470205 0.16114955 0.30111378 -0.0185115
000150 5f 6d d1 bd 36 2a 6a be 29 b5 a2 bd dd cb a4 bd
       -0.10225939 -0.22867665 -0.0794471 -0.08046696
000160 3a 77 40 be b6 ac b1 be b1 40 97 be 21 c5 31 3c
       -0.18795481 -0.3470208 -0.29541543 0.010850222
000170 d2 8a bc 3c 06 70 46 3e a9 f2 b5 be 4c 38 a2 3d
       0.023015413 0.19378671 -0.35536698 0.07920894
000180 0c 4a 01 3c 33 7d e3 3d 70 33 11 3e e7 63 94 be
       0.007891189 0.11107864 0.14179778 -0.2898247
000190 ec c3 99 3e 38 d7 05 3e 22 eb a9 3e 9e 7c 48 3c
       0.3003229 0.1307038 0.33187205 0.012236742
0001a0 ba 86 bd 3d d4 ba 56 3e 4d 30 3d be 9d 6e 55 be
       0.09254213 0.20969707 -0.18475457 -0.20842977
0001b0 90 11 f9 bd 2d 6d 94 3d 3e 65 fd bc 9d 7f 75 3d
       -0.12161553 0.07247386 -0.030932065 0.059936155
0001c0 d1 be 8f 3d e9 37 99 3c 40 0e 6b be 34 dc 9b 3e
       0.07018817 0.018703418 -0.22954655 0.3044144
0001d0 0f 55 91 be 41 4d af 3c dd 3a 90 be 3f 26 8b be
       -0.28385207 0.021399142 -0.2816991 -0.27177617
0001e0 e6 96 49 be 10 a8 b0 3e 06 f1 0c 3e 3f fb b5 bd
       -0.1968647 0.34503222 0.13763818 -0.08885812
0001f0 5b 1a 59 3e 7a e5 42 be e2 ec e8 bd 9e cc 3a bd
       0.2120146 -0.19032851 -0.11373307 -0.045605294
000200 0e 8f 95 be 63 91 53 3e b1 e8 b8 be fc 31 9d 3c
       -0.29210705 0.2066093 -0.3611503 0.019188873
000210 4a f7 e6 3e 02 8f 99 3d c9 30 d0 3e b0 2f fc bc
       0.45110542 0.0749798 0.4066222 -0.030784458
000220 40 6e 8c 3d e1 cd a1 be 8f ba 38 3e 0c 8f 2b 3e
       0.06856966 -0.31602386 0.18039916 0.16753787
000230 51 b1 c4 bc 84 28 9e be 56 60 95 be 75 65 81 bd
       -0.024010332 -0.30890286 -0.2917506 -0.063181795
000240 4c 45 1a 3e f8 a9 f7 be e9 d5 c0 be 23 cf e2 3c
       0.15065497 -0.48371863 -0.376632 0.027686661
000250 14 50 10 bf 24 7f 1d 3c 74 2a a3 bc da 41 fb bd
       -0.5637219 0.009612832 -0.019917704 -0.122684196
000260 05 cb 09 3d 57 83 33 bd 92 53 95 bd 51 a7 e4 3b
       0.03364088 -0.043826427 -0.072913304 0.0069779535
000270 83 28 8c be ee 54 82 be 33 d4 84 be 87 bd 92 3e
       -0.27374658 -0.2545542 -0.25943145 0.28660223
000280 87 21 25 3e 63 5a 35 be c3 f4 23 bd 05 37 e8 3d
       0.16126071 -0.17710261 -0.040028345 0.11338619
000290 a7 32 de 3d d5 9d d0 bd 88 07 55 3e 61 c6 86 bd
       0.10849505 -0.10186354 0.20803654 -0.065808065
0002a0 37 65 5f be 88 8c f7 bd 7f b5 a7 3d a6 2a e8 bd
       -0.21815954 -0.12087351 0.081889145 -0.113362595
0002b0 f8 57 db bc ce d8 8f 3d 45 0f 27 3c a1 0f e0 bc
       -0.026775345 0.07023774 0.010196512 -0.027351202
0002c0 08 70 80 3e 9c ba a8 3d c7 88 50 3d f6 95 a1 bc
       0.25085473 0.08238718 0.05091169 -0.019724827
0002d0 ad 31 72 3b b7 a3 52 be 71 35 57 3e ed 31 b4 bd
       0.0036955879 -0.20570265 0.2101648 -0.08798585
0002e0 15 49 5e bd d3 73 01 bd aa 4b ae 3b 08 8a a1 bd
       -0.054268915 -0.0316046 0.0053190785 -0.078876555
0002f0 58 67 9b 3e cd ee a3 3d 1d 78 17 3e 07 18 5f be
       0.30352283 0.08004532 0.14791913 -0.2178651
000300 a2 30 2c bb cf c8 62 bd 88 50 10 be 44 1e 21 3e
       -0.0026274105 -0.055367287 -0.1409322 0.15734202
000310 f5 97 82 bd cc 6d 4e be 84 9d 04 3d eb f5 14 bd
       -0.0637664 -0.20159072 0.03237678 -0.03636734
000320 a8 66 8c bb 86 5c 0a 3e b9 80 04 3e eb 67 3b 3e
       -0.0042846985 0.13511857 0.12939729 0.1830136
000330 a5 53 e0 bd 94 82 f6 3d 5b 81 45 3c b3 b5 2b 3e
       -0.10953454 0.120366246 0.0120547665 0.16768532
000340 e4 20 a8 bd 9d fb 12 be f8 1a a6 3c d9 ce d2 3d
       -0.082093984 -0.14353795 0.020276532 0.10293359
000350 ef f8 23 3b f4 4b 39 be 91 66 3f 3e 0e a5 68 bd
       0.0025020202 -0.1809538 0.1869147 -0.056798033
000360 f4 de 36 be 03 50 a7 bd 68 7a 17 be df bf 40 bd
       -0.17858487 -0.08169558 -0.14792788 -0.047057983
000370 56 fc 51 be 8f 23 32 3d e0 24 08 3d af 4c 9b 3d
       -0.20506415 0.043490943 0.03323829 0.075829856
000380 6c 67 46 3e 1c 55 02 be 4a 76 b4 bd e7 34 33 3e
       0.1937539 -0.12727779 -0.08811624 0.1750065
000390 04 ee 76 3d 0e c1 a5 bd 39 76 7b bd d5 ae 58 3d
       0.060285583 -0.08093463 -0.061392043 0.052901108
0003a0 3e e6 00 3b dd b0 2f 3d 6c 0d 52 3e c6 7b ec bd
       0.0019668485 0.04289328 0.20512933 -0.115470454
0003b0 7b 9a 72 bd 6b 08 e5 bd 00 28 36 3d fa be a9 3d
       -0.059229355 -0.11183246 0.04447174 0.08288379
0003c0 20 6a 90 3d 7b e5 d0 bd 21 de 06 3d 1e 42 fa bd
       0.07051492 -0.1020002 0.032926682 -0.12219642
0003d0 95 3c e2 3d 0f 87 90 bd a2 fd 76 bd fb 89 aa 3c
       0.11046711 -0.070570104 -0.060300477 0.020817747
0003e0 97 97 f4 3d b0 f4 b0 3d b5 7d c1 3d 5c 98 27 be
       0.11942976 0.086404204 0.09447805 -0.16366714
0003f0 ab f8 05 3e 3d 17 0b 3d 11 97 fc 3d 16 2d fe bc
       0.1308314 0.03395771 0.12333501 -0.031027358

input_gru.weight_hh_l0 f4 [240, 80]
000000 5d 8c 0b 3e 3f 32 dc bc 09 68 25 3e 6b 13 9d 3c
       0.13627763 -0.026879428 0.16152968 0.019174298
000010 64 d6 cd 3d 05 a0 fa 3b cf fc 55 3e 59 00 9a be
       0.100506574 0.0076484703 0.2089722 -0.3007839
000020 6c 20 c9 bd 10 c2 06 be b3 ae 73 3c 2c 7d 3b 3d
       -0.09820637 -0.13159966 0.0148731945 0.04577367
000030 f3 a1 46 bd 70 ad 3e 3d 5f f6 22 be cd c7 f8 bd
       -0.04849429 0.04655212 -0.15914296 -0.12147484
000040 08 1d ab bc 6e 06 1f 3e 69 fa 4f 3e 74 0f 28 be
       -0.020887867 0.15529796 0.20310368 -0.16412145
000050 6f 3a f0 3d 64 85 a0 bd 9b 62 ed 3d eb 4b 39 3e
       0.11729895 -0.07837942 0.11591073 0.18095367
000060 a4 a8 cd bd d8 b1 7b 3e fa cd c8 3e af 5f de 3c
       -0.10041931 0.24579561 0.39219648 0.027145235
000070 b4 1a a9 be ca 98 87 bd dc 95 42 be bd 44 ef 3d
       -0.33028185 -0.06620939 -0.1900248 0.11683033
000080 76 2b 6b bd 0c c3 0e be c5 3b b2 3d 58 2b 93 3e
       -0.057414494 -0.13941592 0.087028064 0.28744006
000090 65 b9 de 3d 1a 0e 4c bd e5 02 91 be 9b 58 70 3e
       0.10875205 -0.049818136 -0.2832252 0.234713
0000a0 3d 12 bf 3d ae 72 66 3e 2c ed 7f 3c cf 96 8e be
       0.093296506 0.22504684 0.015620511 -0.27849433
0000b0 d5 48 a3 bd c8 7d 6d 3e 12 ff 03 3e a2 ff 57 be
       -0.07972876 0.23192513 0.1289027 -0.2109361
0000c0 d5 94 30 3d 16 c7 60 be 63 d5 9c 3e db d0 e1 3d
       0.043110687 -0.21950945 0.3063155 0.11026164
0000d0 76 4d ca be 8a 94 a4 3e 5d 07 ed bd 57 b3 7d 3e
       -0.39512223 0.32144576 -0.1157367 0.24775444
0000e0 fd 55 2a 3e 32 f2 5c be 3e 3a 9b be eb d4 6e bd
       0.16634364 -0.21576765 -0.30317873 -0.058308523
0000f0 4b 6d 87 3d bf 39 01 3e 63 aa f9 bd 9f c3 af 3e
       0.06612643 0.12619685 -0.12190702 0.34328935
000100 cf d7 51 bd a1 a4 da bd e5 d4 cc 3d 85 07 b4 3e
       -0.0512312 -0.10675932 0.10001544 0.35161987
000110 9b 72 bf bd c8 b9 0f 3e 63 ff ea bd 88 d6 45 3e
       -0.09348031 0.14035714 -0.114744924 0.19320118
000120 0c 7b d4 3d e7 12 9f bd 99 68 e2 3d ac fa 70 be
       0.10375032 -0.07767277 0.11055107 -0.23533124
000130 e5 0a 7e bb c1 54 98 be c8 d2 4e 3e 75 1c 9c 3d
       -0.0038763818 -0.29752162 0.20197594 0.07622615
000140 09 2d 60 3d 9e e2 48 3c fd 0e f9 3d 2c b7 73 bd
       0.05473045 0.012261061 0.12161062 -0.05950086
000150 48 6f d5 bc 76 87 a7 bd 2d 84 b1 3c 89 f3 f1 3a
       -0.02605404 -0.08180134 0.021669472 0.001845942
000160 d9 d4 7a bd 5c a7 80 bd 17 17 09 bd f5 4e 0b 3d
       -0.061238144 -0.06281921 -0.033469286 0.034010846
000170 3e 73 8a be 52 07 57 3e 84 f2 e9 bd 7b b9 61 bd
       -0.27041048 0.20998886 -0.11423209 -0.05510853
000180 4e ed e0 bd 53 1a 3f 3e 51 67 0a bc e9 7d 24 be
       -0.10982762 0.18662386 -0.008447484 -0.16063656
000190 6d c7 0a bd f8 35 af 3c d8 e3 e0 3c 9a a5 21 3e
       -0.033881593 0.021388039 0.027452394 0.15785828
0001a0 93 4b 33 bd 14 e9 c4 3d 95 6f ff bd d4 75 6f 3d
       -0.043773245 0.096147686 -0.124724545 0.05846198
0001b0 7c 09 0d be e9 8f 68 bd 4a 7c 7f bd e4 02 bb bb
       -0.13773149 -0.05677787 -0.06237439 -0.0057071317
0001c0 bc 8a 37 3e 9f 0d 97 bb 27 a9 01 3e a0 6c 53 3e
       0.17924017 -0.004609778 0.12662183 0.20646906
0001d0 62 8b 25 3d 2b 07 4a 3d ba 8d ae bc 86 27 1f 3e
       0.04041613 0.049323242 -0.021307815 0.1554242
0001e0 9c 90 3a 3d 35 ba 66 3e 9a 7c 1e 3c 42 c9 0a be
       0.045548066 0.2253197 0.009673262 -0.13553336
0001f0 b7 85 09 be a5 25 31 3e b5 c1 9d 3c 7b a2 c2 bd
       -0.13429914 0.17299516 0.019257406 -0.09503647
000200 e5 bd 14 3e 9d 6f 2f bd 4e 4b fd 3c 32 e6 1f 3e
       0.14525564 -0.042831052 0.030919697 0.15615156
000210 e2 5c 3b bd 60 39 4b 3e f8 4f f6 bd 67 77 3f 3d
       -0.045742877 0.19846106 -0.120269716 0.04674473
000220 f0 21 ca 3d 72 b9 0f be 80 36 6d bd 1d 61 41 bd
       0.09869754 -0.14035586 -0.057913303 -0.047211755
000230 c9 e3 b0 bd cf 63 c1 3c 17 d6 02 3e 58 85 2f 3e
       -0.086371966 0.023607163 0.12776981 0.1714071
000240 e1 57 ef bd d2 41 5b be 6a 23 67 3e 5f 87 fd 3d
       -0.116866834 -0.21411827 0.22572103 0.123793356
000250 06 c7 bc bd d5 8f 3d 3e f2 67 3a bd be c0 ee 3d
       -0.09217648 0.18511899 -0.045509286 0.116578564
000260 24 86 79 3e 38 9a 42 3e 36 3c c6 bd fa c9 bc bc
       0.24367577 0.19004142 -0.09679453 -0.023045529
000270 1b 2f f6 bc 69 dc ee bd ab ea f0 bd 38 da 9c bd
       -0.030051759 -0.11663134 -0.11763509 -0.076588094
000280 e8 6a 33 3e 87 6c 23 3e 11 74 93 bc c9 d2 2d 3d
       0.1752125 0.15959369 -0.01799968 0.04243735
000290 5c 3e e7 3c a5 46 7d 3d 79 04 8d bb b2 b4 77 bd
       0.028227977 0.06183495 -0.0043035117 -0.06047506
0002a0 c2 e9 cd bd ae 8f 29 3d e5 d4 08 3c 90 51 c4 bc
       -0.100543514 0.04139679 0.008351539 -0.023964673
0002b0 81 41 20 3e 14 e4 90 3c 75 7f 70 bc c0 91 66 be
       0.15649988 0.017686881 -0.014678826 -0.22516537
0002c0 ce 69 06 be 7f b2 a2 3d df 35 dd bd e0 cb 0a bc
       -0.13126299 0.07944202 -0.10801291 -0.008471459
0002d0 fc d7 d9 bd fb ca 05 bd ae 4e 36 bd 1d ea 8e bd
       -0.10636899 -0.03266428 -0.04450863 -0.06978247
0002e0 b3 7c aa bd e1 25 00 3e eb 02 94 bd e6 e8 94 bd
       -0.08324566 0.1251445 -0.07227119 -0.07270984
0002f0 cd 40 e7 bc 85 6a a8 bd 73 ab 8e 3d 53 6e 7c 3d
       -0.028229142 -0.08223442 0.06966295 0.06162865
000300 8f 13 3d bd 86 7f b6 3c 45 f1 f3 3c a8 7d 52 3d
       -0.04616123 0.022277605 0.029778132 0.051389366
000310 cd a2 21 3e bf 73 9e bd d2 b3 37 bd 3f d4 50 3d
       0.1578476 -0.077369206 -0.044849224 0.050983664
000320 37 10 e5 3d 52 bf 7e 3d 5c 1d 2b 3e 0e 0d 0e be
       0.11184733 0.062194176 0.16710418 -0.13872167
000330 6d 5f 46 be 66 a0 a6 3d 3e 45 1a 3d bf 86 a4 bd
       -0.1937234 0.08136062 0.03766369 -0.08033513
000340 3d 8a 22 3d 0c b5 56 bd d3 5a 34 3c 6f 55 7f 3d
       0.039682616 -0.052418754 0.011007982 0.062337335
000350 f7 ab 9b bd 78 fd 9c bd 67 57 ed 3d 66 03 9e 3d
       -0.07601159 -0.07665533 0.11588936 0.07715492
000360 a4 47 2f 3d eb aa bf bd e0 e7 fb 3d 25 0a 30 3b
       0.04279293 -0.09358772 0.12300086 0.0026861515
000370 83 c7 aa 3d cf ab 6d bd 7e a6 96 bd ff 87 27 3e
       0.08338835 -0.058025178 -0.073559746 0.16360472
000380 bb 1e 46 bd b3 14 a8 bc 5c 3b 27 bc 6a 57 e1 bb
       -0.04836915 -0.020517683 -0.0102070235 -0.0068768756
000390 5d cb c9 bd 92 d5 bd bd 59 71 02 be e7 46 b2 3d
       -0.098532416 -0.09269251 -0.12738551 0.0870493
0003a0 93 d0 f6 3d 62 74 9a ba aa e2 11 bd c5 22 3b bd
       0.12051501 -0.0011783952 -0.035616554 -0.045687456
0003b0 00 d0 9c 3d b4 6c 25 be 5f 41 e0 bc f8 94 6a 3e
       0.0765686 -0.16154748 -0.027374921 0.2290839
0003c0 24 96 ab 3c 3e fb b3 3d a6 da 9f bb e5 e1 8e 3c
       0.020945616 0.08788155 -0.00487836 0.0174417
0003d0 c1 ed 58 3b 62 7f 5c 3d 29 8b 02 bd da f1 1e be
       0.0033100697 0.05383242 -0.031870995 -0.15521947
0003e0 be c0 4c 3d b1 7d d1 bd 16 f6 97 3c e1 c4 df 3d
       0.0499885 -0.10229052 0.01854996 0.109262235
0003f0 95 1e 5f 3d f5 0a 12 3c 72 da da bc 25 b4 62 bd
       0.054472525 0.008913745 -0.026715491 -0.05534758

input_gru.bias_ih_l0 f4 [240]
000000 85 50 d1 bd 0b 5d 10 3d 56 5f 25 3d f3 17 1f bd
       -0.10220436 0.035244983 0.040374123 -0.0388412
000010 cd 78 1d 3e c1 e4 b8 3d b8 2d 5b bc 84 51 2b be
       0.15378113 0.09028006 -0.013377599 -0.16730314
000020 87 9f d0 bc bc 6f e4 bd 71 e6 41 3d 32 26 92 bd
       -0.025466694 -0.11154124 0.047338907 -0.071361914
000030 96 c3 98 bd 40 bd 20 be b5 07 3c 3d 99 66 f2 bb
       -0.0745918 -0.15697193 0.045905787 -0.0073974845
000040 72 85 d0 bd 7f b9 ba 3c cf 85 89 3c 49 c1 38 3d
       -0.10181703 0.02279353 0.016787438 0.045106206
000050 da 55 96 3d 40 df 17 be f2 17 ee bd 50 14 5a bc
       0.07340594 -0.14831257 -0.11625661 -0.013310507
000060 d2 51 2c be fc 6e af bc 69 dc 1b 3c 29 20 da bd
       -0.16828087 -0.021415226 0.009512999 -0.10650665
000070 d1 c5 ed 3c 3e 2e 65 3e 7a 15 15 3d cb 58 f2 bc
       0.02902499 0.22380921 0.036397435 -0.029583355
000080 0b e2 79 bd a9 9e c9 bd b0 f3 de 3d 99 34 4c 3d
       -0.061006587 -0.09844715 0.108863235 0.04985485
000090 8a c4 24 bd b0 42 47 bd 82 db e5 bd 99 9e b8 bd
       -0.040226497 -0.048647583 -0.112235084 -0.09014625
0000a0 7f 57 80 3b 18 3d a1 bd df 67 55 bd dc ff 4a be
       0.0039166803 -0.07872981 -0.052101012 -0.19824165
0000b0 2e da be 3d 03 3e a5 3d 62 97 56 3e 54 c7 42 3c
       0.09318958 0.080684684 0.20956185 0.011888344
0000c0 82 38 8b bd 05 1b 0b be 2b fc 9f 3c cd 62 28 bd
       -0.067978874 -0.13584526 0.019529423 -0.04110985
0000d0 18 32 cc bc 13 35 1e be b7 6f c2 bd ad 31 70 3d
       -0.02492623 -0.15449934 -0.09493964 0.058641125
0000e0 1c e3 bb bd 00 3b 69 3c 8b b5 c5 bd d9 c5 ad 3d
       -0.09174177 0.014235258 -0.09653767 0.08485002
0000f0 bd a4 7b bc 6b 27 72 bd ef 73 65 3d f9 3b b8 3b
       -0.015359101 -0.059119623 0.056018766 0.0056223837
000100 c7 c2 a1 3d 31 b7 61 bd 2a 52 7d 3d 7f 7f a6 bd
       0.07898479 -0.055106346 0.061845936 -0.08129787
000110 03 65 7e 3d bf 66 3b bd 35 15 06 bd e0 79 11 be
       0.06210805 -0.045752283 -0.03273507 -0.14206648
000120 16 4e c8 bd 43 79 ea bd cb 88 1d bd 74 bb 4a 3c
       -0.09780519 -0.1144891 -0.038460534 0.012373794
000130 b9 c8 2e bc e1 07 93 3d 00 4c 15 be a4 bd aa 3d
       -0.010667973 0.07179237 -0.14579773 0.08336952
000140 0b 31 ac 3e d6 3f 20 3d 2c 92 e1 3c af 5d 2e 3e
       0.33631167 0.03912338 0.02753552 0.17027925
000150 34 69 cf bd 52 8e ae 3c 75 6c a3 ba 54 82 f1 bd
       -0.10127488 0.021308098 -0.0012468236 -0.11792436
000160 8e a3 77 bd 3e c7 ee 3d fa 04 5f 3c 91 ca 77 3d
       -0.060458712 0.11659096 0.013612026 0.060495917
000170 ed 23 b4 3c ef 03 e5 3d e6 fb 69 be ba 1a ba 3d
       0.021989787 0.11182391 -0.22849998 0.09087129
000180 44 21 a6 3c d3 24 af bd 4c ea 79 bd 3c 86 af bd
       0.020279534 -0.085519455 -0.06101446 -0.08570525
000190 5e ad 96 bc ef d8 91 3d 10 42 a5 3c 3f 83 bf bd
       -0.018393215 0.07121455 0.020173103 -0.09351205
0001a0 c0 5b fa 3c d9 11 3c be de fa 85 bd c5 4d 5d 3e
       0.030561328 -0.18366183 -0.0654199 0.21611698
0001b0 d2 6a 5e 3d 16 f3 90 bd 95 68 c2 bd fb 6e d5 3c
       0.05430109 -0.07077615 -0.09492604 0.026053896
0001c0 9d a4 16 be 6f 56 44 be ef 2d 3a be cd 28 12 bc
       -0.14711232 -0.19173597 -0.18181585 -0.0089208605
0001d0 cf fd 18 3e 29 5d 84 3d 1d 13 14 bd fe e9 d3 3c
       0.1494057 0.064630814 -0.03615104 0.025868412
0001e0 ff 92 51 be 20 e3 a5 3d 03 dc e0 3c c7 c5 90 3c
       -0.20466231 0.08099961 0.02744866 0.017672433
0001f0 59 2d 9c 3e 79 12 59 3d 99 48 92 be bb e9 93 3c
       0.30503348 0.052996133 -0.28571013 0.018055787
000200 2d 4f 53 bd d5 d2 ac 3d 7f 60 bc bd a3 c5 37 bd
       -0.05158918 0.084386505 -0.09198093 -0.044866215
000210 5d c2 fa 3c 77 63 6f 3c 17 3e 61 3d 3e a8 d1 bd
       0.030610258 0.014611117 0.054990854 -0.10237168
000220 da 9d 2b 3d cd a5 be bc bc d7 99 bd 1f fe 9d bd
       0.041898586 -0.02327242 -0.07511851 -0.077144854
000230 64 09 8e 3d 4c a7 4c bc 80 6c fa 3b b1 1c c7 3c
       0.06935385 -0.012491059 0.0076423287 0.024305673
000240 07 02 bd 3c 61 82 86 bd bb 36 d2 3b 6d 21 95 3e
       0.023072256 -0.065678366 0.006415216 0.29127064
000250 3f 4c a2 3d 45 9d 35 3e 2b c1 01 bd 35 8c 0d 3e
       0.07924699 0.17735775 -0.03167836 0.13823016
000260 22 09 a7 3d c4 d1 d7 3d ac ea 92 bd 1f 7c 36 bd
       0.08156039 0.105380565 -0.07173666 -0.044551965
000270 ad 02 a9 3d b6 bc 84 3d 0d 74 22 bc df 13 c0 3d
       0.082524635 0.06481306 -0.009915364 0.0937879
000280 98 0e 75 3b c9 04 3c bd d7 c5 54 bc 43 bc 05 bd
       0.0037392732 -0.045903 -0.012986622 -0.032650243
000290 dc c0 71 bd 04 a2 93 bd 22 5c 99 3d 39 31 86 bd
       -0.059021816 -0.072086364 0.07488276 -0.06552357
0002a0 7c 2c 8e bc b3 ad b3 bd 09 5d 31 bd 4f e0 db 3d
       -0.017355196 -0.08773365 -0.043301616 0.10736143
0002b0 ac 35 86 bd 87 25 39 3d 1c 86 24 bd e5 62 f0 bd
       -0.06553206 0.045201804 -0.04016696 -0.11737613
0002c0 09 86 0d bd 71 da ca 3c 32 52 af 3c 5f 35 05 39
       -0.034551654 0.024762364 0.021401498 0.0001270375
0002d0 fa 1b 6d bd 54 f1 a7 3c 84 c7 47 3d 48 fe 8c 3d
       -0.05788801 0.020500816 0.048774257 0.06884438
0002e0 c2 7d 4c bd 68 64 8f 3d 5f 15 57 3d f3 ea db bb
       -0.04992462 0.07001573 0.052510615 -0.0067113577
0002f0 f0 1c 50 bd 15 dc 19 bd e8 94 c3 3d 38 12 83 bd
       -0.050808847 -0.037563402 0.09549886 -0.06399959
000300 33 41 26 bd 4d 75 8d bd 52 ce 7d 3d 57 60 77 3d
       -0.040589523 -0.06907139 0.06196434 0.06039461
000310 2e 48 27 3e 7f 38 b4 bc ae ca 94 3c 80 b0 cf bc
       0.16336128 -0.021999596 0.018163051 -0.025352716
000320 c0 23 cd bd 5a 02 36 3d 36 58 bf 3d ce e0 71 bd
       -0.100165844 0.044435836 0.09342997 -0.05905228
000330 ad 96 66 bc 36 e9 ab bd 78 fb 3a 3d 7e 9a e1 bd
       -0.01407401 -0.08394091 0.045649976 -0.11015795
000340 b6 fa 5d bc 7f 3d 06 bc 5e 99 31 bc a2 48 25 3d
       -0.013548544 -0.008193373 -0.010839788 0.04035247
000350 3b 78 9b 3a c3 f2 61 bd 83 f5 82 3d a7 17 02 3d
       0.0011861393 -0.055163156 0.06394484 0.031760838
000360 10 4d 6b 3d 41 15 8e bd 46 39 a0 3d 49 56 94 3b
       0.05744654 -0.069376476 0.07823424 0.0045268876
000370 19 1f 4b 3d 98 9a 02 3e 84 09 c2 bd 43 03 2c bd
       0.049590204 0.12754285 -0.09474471 -0.041995298
000380 9b b3 b6 3d ab 91 89 3c d1 ad 0d 3d 12 f9 14 3c
       0.08920976 0.016793093 0.034589592 0.009092586
000390 ec e0 13 be 3a e2 d1 3c 28 8b aa bd 59 94 3d 3d
       -0.1444127 0.025620569 -0.08327323 0.046284053
0003a0 f7 e7 50 3c 46 e7 cb bd 3e ae c1 3d 9c f6 77 3d
       0.012750617 -0.09956221 0.09457062 0.06053792
0003b0 68 fb 4d bd b1 86 30 3c dc 3b f4 bd 02 25 d2 3d
       -0.050288588 0.0107743 -0.1192548 0.10260965

input_gru.bias_hh_l0 f4 [240]
000000 44 4c bb 3a ca 4e 00 be cb 7a a3 bd 8e c5 10 be
       0.0014289697 -0.12530056 -0.07982405 -0.14137861
000010 48 3f ff 3d 1b bd 42 3e be 25 ff 3d fb e1 8b bd
       0.12463242 0.1901745 0.124583706 -0.06830212
000020 85 2d e3 bd 13 06 82 3c 0a e5 4e bd 24 0f b6 bd
       -0.110926665 0.015872037 -0.050511397 -0.088896066
000030 87 e2 94 3d 5f 1f 15 be 46 af 0c be e7 ba 8f 3d
       0.07269769 -0.14562748 -0.13738737 0.07018071
000040 07 a0 94 bd 36 d1 16 3d e2 f0 ff 3b 6a ef e1 bc
       -0.07257085 0.036820613 0.007810698 -0.027579982
000050 b7 85 17 3e f6 33 50 bd 33 a0 82 bd 2b b2 06 be
       0.14797102 -0.050830804 -0.06378212 -0.13153903
000060 8c 1c 56 3c 3b d4 c2 bd 8a 6b 50 bd 04 46 60 3d
       0.01306833 -0.09513136 -0.050883807 0.054754272
000070 94 51 28 3d 83 16 a5 3d a1 45 4d 3d 17 3c 2c bd
       0.041093424 0.080609344 0.05011523 -0.042049494
000080 b6 4d a7 bc f1 dd 92 bd ca 93 92 bb 24 e0 98 bc
       -0.020422798 -0.07171238 -0.0044731842 -0.018661566
000090 0f ab e7 3a 98 77 6f bd c7 ed 59 3d 04 47 95 bc
       0.0017674881 -0.058463663 0.053205278 -0.01822234
0000a0 8f c7 49 ba 4a 36 5c 3d 33 f7 a7 bd 5f 8e ac bd
       -0.0007697278 0.05376271 -0.082014464 -0.08425593
0000b0 20 09 af bd 5a 1c c2 bc e9 b9 0f 3e 26 8c 8d bc
       -0.08546662 -0.02369516 0.14035763 -0.017278742
0000c0 a4 1b 11 3d de 76 38 3d 04 f9 ca bd b4 1b 29 be
       0.03542675 0.045035236 -0.09910777 -0.16514474
0000d0 4a 54 e3 bd 91 4a b0 bd fb 5d 70 3d 71 74 a2 bd
       -0.11100061 -0.086079724 0.058683377 -0.07932366
0000e0 12 c6 30 3d c0 12 b8 bd 39 22 8f be 12 65 0c 3d
       0.043157645 -0.08987951 -0.27955797 0.034276076
0000f0 64 cb 17 be e2 0a c2 bd 11 a3 b8 bc 09 40 9f bd
       -0.14823681 -0.09474732 -0.022538694 -0.077758856
000100 ff 90 b4 3d 10 39 81 3d d3 68 44 3d 6e 3c e6 3d
       0.08816718 0.06309712 0.04795153 0.11241995
000110 d8 36 0d 3d f9 ec 66 3d da ea e1 bd d2 4a 28 3b
       0.03447613 0.05637834 -0.110311225 0.0025679362
000120 a4 20 59 bd 6f 81 f2 3c 7c 13 d1 bd 56 88 38 3d
       -0.053009644 0.029602734 -0.102087945 0.045051895
000130 09 8e e0 3d e5 24 5e bc a6 e9 d8 bd 95 b1 db 3d
       0.10964591 -0.013558601 -0.1059144 0.107272305
000140 66 f3 54 3e 86 c9 4e 3e c7 8f 0f 3d 2e 7a 2e 3e
       0.20795974 0.20194063 0.035049226 0.17038795
000150 a7 e2 9f 3c 84 8c c5 3d 1a 51 8a bb 9c 46 90 bd
       0.019517256 0.09645942 -0.004221094 -0.07044718
000160 d2 e2 4d bc d7 41 0c 3e 4c b9 b5 bc 3d 20 de 3d
       -0.012566285 0.13696991 -0.022183083 0.10845993
000170 59 3d c2 3c c4 1b 79 3d a0 39 65 be dd 4b 88 3d
       0.023710893 0.060817495 -0.22385263 0.06655095
000180 c4 f8 d4 bd bf c2 a2 bc 42 5a e9 3d 98 06 9f bc
       -0.10399011 -0.019868253 0.113941684 -0.019412324
000190 44 fa a3 bd a3 e3 05 3e 16 19 fc bc 2f f5 05 3d
       -0.08006719 0.13075118 -0.03077368 0.03270453
0001a0 73 05 78 3d ea 3a 16 be 58 7a 07 be 8d 81 82 3e
       0.06055207 -0.14670911 -0.13230264 0.25489464
0001b0 d3 c9 32 3d 0c e7 c6 bd 4c e2 3e 3d 63 1f 09 be
       0.043649506 -0.097120374 0.046602532 -0.1339088
0001c0 55 e4 44 bc 0f f6 b2 bd 5b 1e 46 be b7 e2 57 3d
       -0.012017329 -0.08738338 -0.19347517 0.052706446
0001d0 88 ad 80 3d 41 93 58 3c 61 73 6a bd 12 9d 0b 3e
       0.062830985 0.013218702 -0.05723894 0.13634136
0001e0 0c 8d a8 3a 23 63 8d 3d e4 e9 1c 3d 71 d6 a1 3c
       0.0012859418 0.069036745 0.038308993 0.019755574
0001f0 ca 67 6d 3e 94 df b6 bd 56 ec 82 be 33 a9 be 3c
       0.23184124 -0.08929363 -0.25570935 0.02327404
000200 b3 fc 94 bc c4 10 9a 3d 5f 83 65 bd 4b 2c fc bc
       -0.018186903 0.07522729 -0.05603349 -0.03078284
000210 1d 98 f6 3c c7 6b cd 3d e8 f4 a2 3d 49 99 0b 3d
       0.03010183 0.100303225 0.079568684 0.03408173
000220 33 95 86 3d b8 0b 64 bd e8 1f eb bd 84 15 e6 bd
       0.06571426 -0.05567524 -0.11480695 -0.112345725
000230 45 73 17 3e e8 f1 83 bd da 08 bb bd b2 1a ea 3c
       0.14790066 -0.06442624 -0.09132548 0.028577182
000240 91 38 06 3e ac de 90 bd a1 aa 7d 3d 0e 7b 8d 3e
       0.13107516 -0.07073721 0.061930303 0.27632946
000250 c9 0c 03 3e 99 8c d1 3d 94 01 01 3e d0 7b 53 3e
       0.12797846 0.10231895 0.12598258 0.206527
000260 6b a7 67 bc a6 65 91 3e 1c fe 83 3d 7b 40 34 3d
       -0.014139037 0.28397864 0.06444952 0.044006806
000270 bf 47 23 3c bf 22 6e 3d 50 00 66 be 82 b2 4a 3d
       0.009965836 0.058138605 -0.22461057 0.049486645
000280 64 a8 38 3e 64 6d 08 be 24 a2 15 bd 19 64 92 3d
       0.18032986 -0.13322979 -0.036531582 0.07147998
000290 12 15 55 3d ca fa e7 bd ab 09 d1 bd 97 91 c6 bd
       0.052022047 -0.11327131 -0.10206922 -0.09695738
0002a0 cb 17 b7 bd 65 19 0b be 2f e5 bd 3c 14 73 08 bd
       -0.08940085 -0.13583906 0.023180572 -0.033312872
0002b0 a2 73 5b 3b 96 97 ca 3d a5 42 d8 bc 29 34 dd 3c
       0.003348567 0.09892194 -0.026398966 0.027002411
0002c0 5f 34 c8 bd 9e 7e 19 bd 4e 26 25 bd 25 27 82 bb
       -0.09775614 -0.037474267 -0.040319733 -0.0039719515
0002d0 fe 3d 55 3b 59 4f f6 bd 0c 29 ef 3d 17 59 7d 3d
       0.003253817 -0.12026853 0.11677751 0.06185254
0002e0 3f 88 15 be f1 e4 ce bd be 38 dc bd 6a ee e3 3d
       -0.14602755 -0.10102261 -0.1075301 0.11129458
0002f0 6d 69 8f 3d d0 dc 00 3d 2c 13 89 bd 57 99 f6 3d
       0.0700253 0.031460583 -0.0669311 0.12040966
000300 f5 04 85 3d 1e 38 42 3d e4 34 4c 3c dd cb 79 bd
       0.06495086 0.0474168 0.012463782 -0.060985435
000310 0f 3f d8 3d b9 4f 81 bd e7 8e 8e bd 88 0a 84 bd
       0.105589025 -0.06314034 -0.0696085 -0.06447321
000320 be e8 87 3d f4 cc d7 3d 0f f1 f5 3d 3e 17 58 3d
       0.06636189 0.105371386 0.12008869 0.05275654
000330 e7 89 1b be 2e a7 8f 3d cf cb b2 bd de cb b4 3d
       -0.15189324 0.07014309 -0.0873028 0.08827947
000340 bd 41 b8 bd 0d 9b ca bc f6 a2 8e 3d 84 6f 25 3d
       -0.089969136 -0.024732137 0.06964676 0.040389553
000350 5e d5 78 3d ec c9 97 bc ac 06 5b bc 33 c2 bb 3d
       0.060750358 -0.018528901 -0.01336829 0.091679
000360 f1 a9 c1 3d 17 4e dd bd 29 18 cd 3c a9 7d a1 3d
       0.09456242 -0.1080591 0.025035935 0.07885296
000370 1e c7 93 3d 68 91 96 3b 14 7d 97 3d 41 8f 68 3d
       0.07215713 0.0045949705 0.07396904 0.056777243
000380 c9 3c be 3c d6 33 0d bd 68 ef cb bc b1 5f 0c bd
       0.023222344 -0.034473263 -0.024894431 -0.034270946
000390 d0 68 9e bd 3c ba 89 3d e2 26 d6 bc b1 13 c7 bc
       -0.07734835 0.067249745 -0.026141588 -0.024301382
0003a0 56 3a 7e bd a0 61 e7 bd 70 7f c9 3d dc 43 ef bd
       -0.062067352 -0.11297917 0.0983876 -0.11682865
0003b0 61 53 19 3e 21 1c 6c 3d ce e5 d8 3c 4f 9b 05 be
       0.14973213 0.057644013 0.026476767 -0.13047527

question_gru.weight_ih_l0 f4 [240, 80]
000000 30 66 66 3d cf e3 8d be 75 af 52 be 51 3c ff bd
       0.056249797 -0.27712867 -0.20574744 -0.12462676
000010 29 32 d7 3d 66 09 38 be ba 2d 4b 3e 99 08 14 3d
       0.10507614 -0.17972335 0.19841662 0.036141012
000020 f0 8e c9 be c7 60 b5 be ea f1 96 3e 0d db ac be
       -0.39366865 -0.35425398 0.2948144 -0.33760872
000030 f3 59 aa be 9e 11 d5 3d 22 38 b1 3e f9 a7 63 3e
       -0.3327175 0.10403751 0.34613138 0.22232045
000040 9c 7d bc 3d 25 80 74 bd 38 07 71 3e 8d c2 83 3c
       0.092036456 -0.05969252 0.2353791 0.01608398
000050 c5 d0 ce 3d 0c c9 82 be aa f1 c0 3e 11 3a 22 bd
       0.100984134 -0.25544012 0.37684375 -0.039606158
000060 20 b2 54 3d ab da 36 3e 01 ad 94 be c0 37 3f be
       0.051927686 0.17856853 -0.29038242 -0.1867361
000070 3d 12 44 3e 23 9b 1d 3d 6f 11 f6 bd f2 43 6b be
       0.19147582 0.038478028 -0.12015044 -0.22975138
000080 11 29 20 3b ba 2a a6 be dc 3f e0 bd 12 2a 32 3e
       0.002443854 -0.32454473 -0.1094968 0.17398861
000090 d1 0a 7c be 85 fa 16 be 8e 29 8a be dc cb 5e 3e
       -0.24613501 -0.14744003 -0.2698483 0.21757454
0000a0 11 81 38 be 99 8b 9a bd 94 cb 83 3e 5f 60 43 3e
       -0.18017985 -0.075461574 0.25741255 0.19079731
0000b0 cf 3a e7 be 58 49 a7 3d ee b5 3f bd 1f 21 a5 3d
       -0.45162055 0.08168286 -0.04680436 0.08062958
0000c0 57 3d b2 be 3e 5f 8f bd 68 3e 6a 3d 61 c0 f3 bd
       -0.34812424 -0.07000588 0.05718842 -0.11901928
0000d0 c2 ee f3 bc ea db fc bd 4d a3 17 3e 05 36 af be
       -0.029776935 -0.12346633 0.14808388 -0.342209
0000e0 f0 ad 3c 3d ac 7b b7 be f4 d4 ca bd 97 47 8e be
       0.046064317 -0.35836542 -0.09903899 -0.27788994
0000f0 93 55 03 3e 88 1b ac 3d 7e d9 02 3e 38 eb 89 3e
       0.12825613 0.08403689 0.12778279 0.2693727
000100 2d 1c 81 3e 04 e5 32 be 63 46 31 3c fa e8 ad 3d
       0.2521681 -0.17470175 0.010820004 0.084917024
000110 c2 49 22 3e 91 32 1b be ff f4 40 3d e0 a8 32 be
       0.15848449 -0.15156008 0.047108646 -0.17447233
000120 f6 e5 ee 3d a7 2e f0 3d 46 55 a5 3e 9a b3 eb 3d
       0.11664955 0.11727648 0.3229162 0.11508866
000130 e2 cd 2d 3e 90 d2 aa bd 59 1d 14 3e 0b cd 4d 3e
       0.1697307 -0.08340943 0.1446432 0.20097749
000140 5f 4c a2 bc 4b 4a 9f 3b be 5c 74 3c 5d 7d 53 3d
       -0.019811807 0.0048611513 0.01491469 0.051633228
000150 42 7a 07 bd ad e5 92 bd 17 f4 bd bb 5e 5e 21 3e
       -0.03307558 -0.071727134 -0.00579692 0.15758654
000160 e2 08 25 3e c7 8e 8d bd 4b 71 cc 3d 5e 53 df bd
       0.1611667 -0.06911998 0.099825464 -0.10904573
000170 98 3a 21 3d 62 4c 98 bc 9f ef 8b bd 2e c9 3d bd
       0.03936252 -0.01859111 -0.068328135 -0.046334438
000180 6c cc 94 3d 8a d1 9b 3d 32 ad 2a bc a5 f3 92 3c
       0.07265553 0.07608326 -0.01041727 0.017938444
000190 0e f1 e3 bd 81 88 b3 bd 1d 04 8b 3c 50 b0 71 3d
       -0.11129962 -0.087662704 0.016969735 0.059006035
0001a0 61 c4 10 3d 46 9c 07 3d 83 07 20 3e 69 5b 12 be
       0.03534353 0.03310802 0.15627865 -0.14292683
0001b0 bb 7c 4c bd 29 71 13 bd d5 26 15 3e b0 1c 6d 3d
       -0.04992364 -0.03599659 0.14565594 0.057888687
0001c0 e7 f2 04 3e de 0f 5e 3c 78 12 00 3e a8 ce 47 3c
       0.12983285 0.013553588 0.12507045 0.012195267
0001d0 de eb ff 3d ee 24 18 bd 88 20 42 3e 33 ff be bd
       0.1249616 -0.037144594 0.18957722 -0.09326019
0001e0 4f 63 0c be 5b 86 76 3d 13 3e b3 bb fa fd 0e bd
       -0.13709758 0.060186725 -0.0054700463 -0.03491018
0001f0 1f 7f d0 3c 0d a9 a8 bd 2e bd 03 3e 47 a3 c4 bd
       0.025451241 -0.08235369 0.12865135 -0.09601455
000200 f6 8d 85 bc 42 50 e6 bd 74 09 35 be bb d8 04 bd
       -0.016303044 -0.11245777 -0.17679387 -0.032433253
000210 9c df a7 bc 0e 3d ba bd ae c1 50 3d e4 16 c0 3d
       -0.020492367 -0.090936765 0.050965957 0.09379366
000220 89 6b be 3d 71 4b 0b bd fe 3a e7 3a d4 e5 5d bd
       0.092978545 -0.034007493 0.0017641482 -0.05417426
000230 6a 31 1f 3d 0c 4a ae 3d 4c 2d 66 3d 19 8e 56 3d
       0.038865484 0.08510217 0.056195542 0.05238161
000240 32 e3 d3 3d d8 c3 5e bc d4 3c 68 ba 2c 42 dc bc
       0.103460684 -0.0135964975 -0.0008859162 -0.026887022
000250 6f 02 3b 3e d7 3b a6 bc 87 c3 4b 3d 9b 2f 3e 3b
       0.18262647 -0.020292206 0.049747016 0.0029020074
000260 59 07 08 bc a3 be a4 bd 97 58 bb bc e6 d2 de ba
       -0.008302533 -0.080441736 -0.022869391 -0.0017000108
000270 3c 1d 38 bc eb 5b 66 bd 2d cb 2a be 86 5a 83 ba
       -0.011237439 -0.056240004 -0.16679068 -0.0010021485
000280 b6 91 e8 bc 69 36 cf 3d 3b 12 06 3e f2 4b 77 3d
       -0.028389793 0.101178 0.13092892 0.06037516
000290 35 66 ba bd 48 0b 2c 3e ed 35 a1 bd 36 0f 93 bd
       -0.09101526 0.16801178 -0.07871614 -0.07180636
0002a0 93 70 eb b8 e8 76 92 bd e3 f8 fc bd 77 69 2c be
       -0.00011226642 -0.07151586 -0.12352159 -0.16837107
0002b0 cc af 43 be 1f 29 08 bc 7d 00 2c 3e 54 42 72 bb
       -0.1911003 -0.008310585 0.16797061 -0.0036965804
0002c0 09 45 bb bb eb 6f ea bd 3e 89 c0 bd f3 2e 67 3d
       -0.0057150167 -0.11447128 -0.09401177 0.05644126
0002d0 de ef 0b bc c2 31 ca 3d f5 eb 2c be 78 30 c7 3c
       -0.0085410755 0.09872772 -0.16886885 0.024315104
0002e0 93 74 04 bc b5 99 cf 3d 59 98 29 be c6 5e 8e 3d
       -0.008084434 0.10136739 -0.16562022 0.0695167
0002f0 45 6f d9 3d ff dd 7b be 6d 31 5c 3e 6f a4 5a bd
       0.10616926 -0.24596404 0.2150323 -0.053379472
000300 ab 0f 76 bc 7f ca f2 3d 8c 1b 10 3d 09 8d 77 3d
       -0.015018384 0.11855029 0.03518252 0.060437236
000310 23 df 12 3d e8 3d 2f 3d 3a 32 ae bd 46 9f 12 3e
       0.03585733 0.042783648 -0.08505674 0.1431857
000320 89 bf a7 be 50 37 b3 bd ec e7 c6 be ff e3 96 bd
       -0.32763317 -0.087507844 -0.38848817 -0.073677056
000330 1f 59 76 3e 3f a0 00 bd 60 8b 76 be d2 ed bc 3d
       0.24057434 -0.031402823 -0.24076605 0.09225048
000340 ef b7 53 bd c5 9b c3 bd 0e af 47 3d bf bb 2b bd
       -0.051689085 -0.09551195 0.04875093 -0.041927096
000350 a8 51 25 3e b1 a8 bd 3d 5a 4d 94 bd ac 5a e2 3d
       0.1614443 0.09260691 -0.07241316 0.110524505
000360 68 e0 71 3e a6 b2 a3 3e e1 ec 2f 3d 1e 5d 09 be
       0.2362076 0.31972235 0.042950515 -0.13414428
000370 dd d5 88 3e 53 4f 98 bb d6 12 0c 3e b6 fd cf bd
       0.26725665 -0.004648128 0.1367906 -0.101558134
000380 cc a6 b4 be 0b be d0 3d 64 55 97 3e b3 dd 1b be
       -0.35283506 0.10192498 0.29557335 -0.1522129
000390 b4 98 3f 3d 33 f2 7c be e4 90 4a 3e 17 3b 20 3e
       0.04677649 -0.24701767 0.19781834 0.15647541
0003a0 67 04 39 bd 8f f9 80 be ed 25 c4 3d 26 40 d7 bd
       -0.045170214 -0.25190398 0.09577546 -0.10510282
0003b0 ec d5 29 bd 02 3d 91 3d 65 8a e7 3d 37 04 f3 3d
       -0.041463777 0.070917144 0.113056935 0.11866038
0003c0 fa bf 37 bd e6 32 58 3d 6f 7b 97 bd 94 19 66 be
       -0.044860817 0.052782916 -0.0739659 -0.22470695
0003d0 db 51 7f bd 2b f7 8c be ed c7 c0 bd d9 ba 8c be
       -0.062333923 -0.27532324 -0.09413133 -0.27486303
0003e0 ec 6d 1c 3e 6c 51 2b 3e 36 db 20 3d e7 1e 64 3e
       0.15276307 0.16730279 0.039271556 0.22277413
0003f0 15 cc 46 3c 7c 32 bc 3d 49 a6 bc 3d a9 50 dc bc
       0.012133618 0.09189317 0.09211404 -0.02689393

question_gru.weight_hh_l0 f4 [240, 80]
000000 d5 e1 6a 3c 94 91 56 bc 42 a2 f7 3d 8c bf fe bd
       0.014336069 -0.013096232 0.12091495 -0.124388784
000010 e3 3e 30 3e 0b d0 5a bc 72 1a 93 bd f1 d0 20 bd
       0.1721149 -0.013355265 -0.071827784 -0.039261762
000020 3f c1 fa 3c 02 a1 46 bb 44 f7 65 ba bd 94 5c bc
       0.030609725 -0.003030837 -0.0008772502 -0.013463196
000030 92 ba 2a bd 90 66 19 be 87 3d 7d 3d af 80 2b be
       -0.041681834 -0.1498053 0.061826255 -0.16748308
000040 a0 ce d8 3d 09 1b 2b 3d ce 39 07 bd 41 02 df 3d
       0.105862856 0.04177383 -0.03301411 0.10889102
000050 85 2b 8d 3e 5a 27 6d 3e aa 3e 28 3d f8 5f d7 3d
       0.27572265 0.23159543 0.041075386 0.105163515
000060 6a 9a 15 be 2b 0d dc bc 4e 39 c7 3c 2e 76 b7 3c
       -0.14609686 -0.026861748 0.024319317 0.02239522
000070 0d be dd bd 92 b7 a8 3c 28 97 62 be b5 da 64 be
       -0.10827265 0.020595346 -0.22127974 -0.22349055
000080 87 e6 95 bd 2e f9 8f 3e a2 f5 1c be f0 17 da bd
       -0.0731936 0.28119797 -0.15328076 -0.10649097
000090 8d ac 84 3d 6d b1 05 3e f3 3a 24 3e 14 50 f3 bd
       0.06478224 0.13055964 0.16038112 -0.11880508
0000a0 28 fb 4a 3d 12 37 ac 3d c3 8e 52 3e 5f 96 26 be
       0.049555928 0.08408941 0.20562272 -0.162683
0000b0 a0 e3 4d be ac 62 c9 bd e9 5b 4e 3d a3 24 bd bc
       -0.20106363 -0.09833273 0.05038062 -0.023088759
0000c0 3c fd f1 bd a5 9f a5 3b a5 58 b5 bd e8 bb ea 3d
       -0.11815879 0.0050544315 -0.08854798 0.114616215
0000d0 49 d5 54 bd 0c d9 57 bd de 00 be bd 13 b9 91 3e
       -0.051961217 -0.052697226 -0.09277509 0.28461513
0000e0 73 f0 77 bc 86 e9 31 3e 48 1b 24 be 2c 52 b8 3c
       -0.015133011 0.17374238 -0.16026032 0.02250012
0000f0 cc 65 24 bd 0c 7e 90 3d bb 03 08 bd 17 75 3f 3d
       -0.040136144 0.070552915 -0.033206683 0.046742525
000100 b2 12 cb 3c 1f ed bf be 1b 49 95 bd 45 c1 01 3e
       0.024789188 -0.37485597 -0.072893344 0.12671383
000110 70 21 80 be ae 86 45 be c9 4e ce 3d 38 23 df 39
       -0.2502551 -0.19289657 0.10073621 0.00042560115
000120 0b 8f 0e bd 30 c8 7d 3e 1b 4f 79 bd 22 28 dc 3d
       -0.034804385 0.24783397 -0.060866456 0.10749842
000130 25 ae c1 bc 30 ec ca bd 2d c6 dc bd aa 11 0c 3e
       -0.023642609 -0.099083304 -0.107799865 0.13678613
000140 67 ec 9e bd f5 f1 a2 3e 56 cd 87 be e9 df 45 bd
       -0.07759934 0.31825224 -0.26523846 -0.04830924
000150 a4 16 63 bc 58 e8 ff 3d b7 0f 64 3e 8a 84 c8 be
       -0.013860378 0.12495488 0.2227162 -0.3916362
000160 78 fa 5a be 1e ed 52 3e b9 39 79 3d dc 61 ae 3d
       -0.21384609 0.20598266 0.060846064 0.08514759
000170 27 e1 18 be 4e 0b db 3d 6d fb 16 3e e3 56 e3 bd
       -0.14929639 0.106955156 0.14744349 -0.11100557
000180 cd 45 e4 bc 08 40 fc bd 29 89 c9 bd de 9a 2d bc
       -0.027865315 -0.123169005 -0.09840614 -0.010596005
000190 6b 2f b0 3d 21 c4 fa 3d 25 a7 ab bd a5 a2 24 be
       0.08602794 0.1224444 -0.0838149 -0.16077669
0001a0 52 78 c4 bb 9d a8 63 3e a9 e1 08 bd fe 3a ec 3d
       -0.0059957886 0.2223229 -0.03341833 0.11534689
0001b0 c6 b6 1e be 73 ab 5d be 3a 52 b7 3d 6a 0f 9a bd
       -0.1549941 -0.21647434 0.0895123 -0.07522471
0001c0 d3 3c fd bb 2b ed 03 be b1 1c 04 bc 46 04 00 be
       -0.007728198 -0.12883441 -0.008063481 -0.1250163
0001d0 90 0b 71 be a3 18 98 be e3 a5 3d 3e 0e a0 21 be
       -0.23539567 -0.29706296 0.18520312 -0.15783712
0001e0 d5 a4 6d be 0c bb 45 3e b3 45 26 be 60 e8 8d 3d
       -0.2320741 0.19309634 -0.16237526 0.06929088
0001f0 24 8d c0 3e d9 8a 34 bd f9 79 11 be 6e 6a d9 bd
       0.37607682 -0.044077728 -0.14206685 -0.10616003
000200 51 45 02 bd fa 60 29 be 81 8e 06 3e 24 85 87 be
       -0.031804387 -0.165409 0.13140298 -0.26468766
000210 d9 2f 81 bc 79 e6 29 3e 02 42 0e 3b ea b4 03 3e
       -0.015769886 0.16591825 0.0021706824 0.12861982
000220 0e 50 d3 bd 19 22 9e 3c 8f 8d 15 3d 57 03 04 3e
       -0.103180036 0.019303368 0.036511954 0.12891899
000230 83 e7 62 be 7b cb 5e bc 37 2f 82 3e 0f 96 d7 3d
       -0.22158627 -0.013598318 0.25426647 0.10526668
000240 29 83 67 3d d2 db ad bd 3e df 31 3e a8 97 51 3e
       0.05652157 -0.08489193 0.17370316 0.20468009
000250 a2 34 24 3e fb 89 80 be 7f a0 83 3d 53 ba c2 3d
       0.16035703 -0.2510527 0.064270966 0.09508195
000260 0c b3 28 bd 35 89 56 be 66 20 bf bd 7a a2 54 be
       -0.041186377 -0.20950778 -0.093323514 -0.20765105
000270 54 9c d1 bc b7 74 44 bd ad 38 97 3d 8c 39 79 bd
       -0.025587238 -0.04796287 0.07383857 -0.060845897
000280 62 74 44 3c 42 3c 54 bd f1 1b 99 ba 2d 1a 5b 3c
       0.011990638 -0.05181528 -0.0011681301 0.01337294
000290 9b cc 4b bd ba bb 90 3d 65 23 95 3c a1 d0 b6 bc
       -0.049755674 0.07067056 0.018205354 -0.022316279
0002a0 95 70 e1 bd 69 05 e1 3d 60 0e 5e 3d 4f 75 17 3e
       -0.110078014 0.1098736 0.054212928 0.14790843
0002b0 1e 8c bf bd a1 bc 1c be a4 88 c5 bd 40 b2 90 bd
       -0.09352897 -0.15306331 -0.09645203 -0.070652485
0002c0 c2 70 d2 bc 3f f8 9b bd 8d 64 b5 3b d4 32 c5 3d
       -0.025688533 -0.076157086 0.005535668 0.09628835
0002d0 3f b9 b7 bd 6a 4c f6 3d 8b df 21 3d 90 39 1d 3d
       -0.0897088 0.120262936 0.039519828 0.038384974
0002e0 ed fa 88 3b 92 81 d1 3d 2d fd 29 be 54 9c 66 3e
       0.0041803033 0.10229792 -0.16600485 0.22520572
0002f0 92 d7 96 3c 92 a9 91 bc a2 e1 d8 bc 2a 43 8f bd
       0.018413339 -0.017781053 -0.026474778 -0.069952324
000300 13 13 05 3d e0 95 22 3e a0 44 5c be 00 d9 27 bc
       0.032488894 0.15877485 -0.21510553 -0.010244608
000310 95 35 d4 bd 0e 15 56 bd 3d 86 29 3d 81 58 4e 3d
       -0.103617825 -0.052266173 0.041387785 0.050377373
000320 25 c6 0b be 16 7c 82 3d ef 8c 1e be 59 10 e3 3d
       -0.13649805 0.06371324 -0.1548345 0.110871024
000330 e9 57 6c bd 63 64 5b 3e 62 a0 b1 bb ed dc 04 bd
       -0.057701025 0.21425013 -0.0054207304 -0.032437254
000340 24 f0 eb 3c 9f 4a 66 be 00 ae 0d 3e 20 29 c5 3d
       0.028801031 -0.22489403 0.13835907 0.096269846
000350 c3 a9 5c 3e b7 22 4a bc e0 0f ac 3c 38 5f a9 3d
       0.21549134 -0.012337378 0.021003664 0.08270115
000360 15 4a a8 bd b3 a5 f9 bc 28 5c e7 bd 98 8f a3 3e
       -0.08217255 -0.03047452 -0.11296874 0.3194549
000370 5d 90 09 3e 31 fb 18 bd 96 38 78 3d 7a cd 8d 3e
       0.13433976 -0.03734893 0.06060084 0.2769583
000380 ee 10 b1 3d dc 54 89 bd 56 eb 00 3e 86 02 57 3e
       0.08645807 -0.06705639 0.12589774 0.20997056
000390 2c d3 06 3e b3 87 f0 bd fd c5 7b bc 17 bc 18 3e
       0.13166493 -0.117446326 -0.015367028 0.149155
0003a0 ae 58 9a bd 85 5f 9f 3b a1 23 7d be 67 da 0d 39
       -0.075364456 0.0048636817 -0.24720623 0.00013528169
0003b0 5c f3 a3 bc d2 8f d0 bb 68 0b f7 3c e7 84 f6 bc
       -0.020013504 -0.006364801 0.030156806 -0.03009267
0003c0 e1 b8 24 3e 45 71 9d 3e 41 be 20 bc 18 39 98 be
       0.1608615 0.3075048 -0.009810985 -0.2973106
0003d0 95 b1 24 3e 99 35 3e 3d 8f b6 26 3d 9b ec 5e bd
       0.16083367 0.046437833 0.040701445 -0.054424863
0003e0 2d d4 91 be 89 a9 30 3e b4 60 28 3e 16 94 18 3e
       -0.2848219 0.17252173 0.1644314 0.1490024
0003f0 5f f3 3b be c6 25 ba bb 6e d9 74 3e 1b 33 b4 3d
       -0.18354557 -0.0056807725 0.23911068 0.0879881
